…
./model/unet_gn5.hdf5
save train log to path:  ./history/trainning_gn5.log
loading data
------------------------------
load train images...
------------------------------
------------------------------
load test images...
------------------------------
loading data done
__________________________________________________________________________________________________
Layer (type)                    Output Shape         Param #     Connected to                     
==================================================================================================
input_1 (InputLayer)            (None, 512, 512, 1)  0                                            
__________________________________________________________________________________________________
conv2d_1 (Conv2D)               (None, 512, 512, 64) 640         input_1[0][0]                    
__________________________________________________________________________________________________
group_normalization_1 (GroupNor (None, 512, 512, 64) 128         conv2d_1[0][0]                   
__________________________________________________________________________________________________
activation_1 (Activation)       (None, 512, 512, 64) 0           group_normalization_1[0][0]      
__________________________________________________________________________________________________
conv2d_2 (Conv2D)               (None, 512, 512, 64) 36928       activation_1[0][0]               
__________________________________________________________________________________________________
group_normalization_2 (GroupNor (None, 512, 512, 64) 128         conv2d_2[0][0]                   
__________________________________________________________________________________________________
activation_2 (Activation)       (None, 512, 512, 64) 0           group_normalization_2[0][0]      
__________________________________________________________________________________________________
max_pooling2d_1 (MaxPooling2D)  (None, 256, 256, 64) 0           activation_2[0][0]               
__________________________________________________________________________________________________
conv2d_3 (Conv2D)               (None, 256, 256, 128 73856       max_pooling2d_1[0][0]            
__________________________________________________________________________________________________
group_normalization_3 (GroupNor (None, 256, 256, 128 256         conv2d_3[0][0]                   
…
conv2d_6 (Conv2D)               (None, 128, 128, 256 590080      activation_5[0][0]               
__________________________________________________________________________________________________
group_normalization_6 (GroupNor (None, 128, 128, 256 512         conv2d_6[0][0]                   
__________________________________________________________________________________________________
activation_6 (Activation)       (None, 128, 128, 256 0           group_normalization_6[0][0]      
__________________________________________________________________________________________________
max_pooling2d_3 (MaxPooling2D)  (None, 64, 64, 256)  0           activation_6[0][0]               
__________________________________________________________________________________________________
conv2d_7 (Conv2D)               (None, 64, 64, 512)  1180160     max_pooling2d_3[0][0]            
__________________________________________________________________________________________________
group_normalization_7 (GroupNor (None, 64, 64, 512)  1024        conv2d_7[0][0]                   
__________________________________________________________________________________________________
activation_7 (Activation)       (None, 64, 64, 512)  0           group_normalization_7[0][0]      
__________________________________________________________________________________________________
conv2d_8 (Conv2D)               (None, 64, 64, 512)  2359808     activation_7[0][0]               
__________________________________________________________________________________________________
group_normalization_8 (GroupNor (None, 64, 64, 512)  1024        conv2d_8[0][0]                   
__________________________________________________________________________________________________
activation_8 (Activation)       (None, 64, 64, 512)  0           group_normalization_8[0][0]      
__________________________________________________________________________________________________
dropout_1 (Dropout)             (None, 64, 64, 512)  0           activation_8[0][0]               
__________________________________________________________________________________________________
max_pooling2d_4 (MaxPooling2D)  (None, 32, 32, 512)  0           dropout_1[0][0]                  
__________________________________________________________________________________________________
conv2d_9 (Conv2D)               (None, 32, 32, 1024) 4719616     max_pooling2d_4[0][0]            
__________________________________________________________________________________________________
group_normalization_9 (GroupNor (None, 32, 32, 1024) 2048        conv2d_9[0][0]                   
__________________________________________________________________________________________________
activation_9 (Activation)       (None, 32, 32, 1024) 0           group_normalization_9[0][0]      
__________________________________________________________________________________________________
conv2d_10 (Conv2D)              (None, 32, 32, 1024) 9438208     activation_9[0][0]               
__________________________________________________________________________________________________
group_normalization_10 (GroupNo (None, 32, 32, 1024) 2048        conv2d_10[0][0]                  
__________________________________________________________________________________________________
activation_10 (Activation)      (None, 32, 32, 1024) 0           group_normalization_10[0][0]     
__________________________________________________________________________________________________
dropout_2 (Dropout)             (None, 32, 32, 1024) 0           activation_10[0][0]              
__________________________________________________________________________________________________
up_sampling2d_1 (UpSampling2D)  (None, 64, 64, 1024) 0           dropout_2[0][0]                  
__________________________________________________________________________________________________
conv2d_11 (Conv2D)              (None, 64, 64, 512)  2097664     up_sampling2d_1[0][0]            
__________________________________________________________________________________________________
group_normalization_11 (GroupNo (None, 64, 64, 512)  1024        conv2d_11[0][0]                  
__________________________________________________________________________________________________
activation_11 (Activation)      (None, 64, 64, 512)  0           group_normalization_11[0][0]     
__________________________________________________________________________________________________
concatenate_1 (Concatenate)     (None, 64, 64, 1024) 0           dropout_1[0][0]                  
                                                                 activation_11[0][0]              
__________________________________________________________________________________________________
conv2d_12 (Conv2D)              (None, 64, 64, 512)  4719104     concatenate_1[0][0]              
__________________________________________________________________________________________________
group_normalization_12 (GroupNo (None, 64, 64, 512)  1024        conv2d_12[0][0]                  
__________________________________________________________________________________________________
activation_12 (Activation)      (None, 64, 64, 512)  0           group_normalization_12[0][0]     
__________________________________________________________________________________________________
conv2d_13 (Conv2D)              (None, 64, 64, 512)  2359808     activation_12[0][0]              
__________________________________________________________________________________________________
group_normalization_13 (GroupNo (None, 64, 64, 512)  1024        conv2d_13[0][0]                  
__________________________________________________________________________________________________
activation_13 (Activation)      (None, 64, 64, 512)  0           group_normalization_13[0][0]     
__________________________________________________________________________________________________
up_sampling2d_2 (UpSampling2D)  (None, 128, 128, 512 0           activation_13[0][0]              
__________________________________________________________________________________________________
conv2d_14 (Conv2D)              (None, 128, 128, 256 524544      up_sampling2d_2[0][0]            
…
group_normalization_19 (GroupNo (None, 256, 256, 128 256         conv2d_19[0][0]                  
__________________________________________________________________________________________________
activation_19 (Activation)      (None, 256, 256, 128 0           group_normalization_19[0][0]     
__________________________________________________________________________________________________
up_sampling2d_4 (UpSampling2D)  (None, 512, 512, 128 0           activation_19[0][0]              
__________________________________________________________________________________________________
conv2d_20 (Conv2D)              (None, 512, 512, 64) 32832       up_sampling2d_4[0][0]            
__________________________________________________________________________________________________
group_normalization_20 (GroupNo (None, 512, 512, 64) 128         conv2d_20[0][0]                  
__________________________________________________________________________________________________
activation_20 (Activation)      (None, 512, 512, 64) 0           group_normalization_20[0][0]     
__________________________________________________________________________________________________
concatenate_4 (Concatenate)     (None, 512, 512, 128 0           activation_2[0][0]               
                                                                 activation_20[0][0]              
__________________________________________________________________________________________________
conv2d_21 (Conv2D)              (None, 512, 512, 64) 73792       concatenate_4[0][0]              
__________________________________________________________________________________________________
group_normalization_21 (GroupNo (None, 512, 512, 64) 128         conv2d_21[0][0]                  
__________________________________________________________________________________________________
activation_21 (Activation)      (None, 512, 512, 64) 0           group_normalization_21[0][0]     
__________________________________________________________________________________________________
conv2d_22 (Conv2D)              (None, 512, 512, 64) 36928       activation_21[0][0]              
__________________________________________________________________________________________________
group_normalization_22 (GroupNo (None, 512, 512, 64) 128         conv2d_22[0][0]                  
__________________________________________________________________________________________________
activation_22 (Activation)      (None, 512, 512, 64) 0           group_normalization_22[0][0]     
__________________________________________________________________________________________________
conv2d_23 (Conv2D)              (None, 512, 512, 2)  1154        activation_22[0][0]              
__________________________________________________________________________________________________
activation_23 (Activation)      (None, 512, 512, 2)  0           conv2d_23[0][0]                  
__________________________________________________________________________________________________
conv2d_24 (Conv2D)              (None, 512, 512, 1)  3           activation_23[0][0]              
==================================================================================================
Total params: 31,045,381
Trainable params: 31,045,381
Non-trainable params: 0
__________________________________________________________________________________________________
model architecture : 
 None
got unet
lr_mode:  CycleLR  step_size:  971.0
Fitting model...
…
